1/LeNet/Lenet.pth (torch, 487900 bytes, 10 tensors)

conv1.weight f4 [16, 3, 5, 5]
000000 86 76 01 be 73 9e 48 bd f2 21 5f be 7d bf 1f be
       -0.1264287 -0.048979234 -0.21790293 -0.1560039
000010 84 8c f2 3b 6c 31 a4 bd 35 dc 3c 3e 80 2e 03 3e
       0.0074020047 -0.08017239 0.18443377 0.12810707
000020 46 be 31 3e 50 06 b1 bd 80 c1 3f 3d f0 11 9e 3b
       0.1735774 -0.08643782 0.046815395 0.0048239157
000030 ed c2 93 bd 4c 51 17 3d 6c 88 ba 3c 69 c4 f6 bc
       -0.072149135 0.036942765 0.02277013 -0.030122953
000040 9a d9 01 be 02 71 7c be 14 01 1c be 8e ec 04 3b
       -0.12680665 -0.24652484 -0.15234786 0.00202826
000050 84 da 31 3e 55 36 63 3e 09 b6 43 3e e7 2a d3 3c
       0.17368513 0.22188695 0.1911241 0.025777293
000060 0d 5a 8e 3d c9 d6 a2 3b 34 33 18 3d 61 6d 6b be
       0.069507696 0.004969452 0.037158206 -0.22990943
000070 c8 45 5d 3d 45 cd 2e bd 59 ec e9 3d 64 3a f0 3d
       0.054021627 -0.04267623 0.11422033 0.11729887
000080 8b 21 66 3e 34 26 84 3e b2 5b 6b bc 04 e2 58 bd
       0.22473733 0.25810397 -0.014365124 -0.05294992
000090 d3 98 d6 bd 8d 63 d0 bd 4f 06 17 3e 7d d1 03 bd
       -0.10478368 -0.10175238 0.147485 -0.032182205
0000a0 a4 f1 57 be 7d f4 1d bd a8 1f 8f be bf 3a 33 be
       -0.21088272 -0.03856324 -0.2795384 -0.17502879
0000b0 63 5f 2f 3d db 98 86 3d f7 08 27 3d eb 46 79 3d
       0.042815577 0.065721236 0.040780034 0.06085865
0000c0 9f 3c 0e 3d 14 50 89 3d e5 04 8f bd 9a 4d 66 3d
       0.03472578 0.06704727 -0.069833554 0.05622635
0000d0 19 5e a0 bd 48 2c cf bd 34 86 be 3d 9d ac 1b 3e
       -0.07830448 -0.10115868 0.09302941 0.15202565
0000e0 3c 8d 86 3e fa 40 31 3e 86 47 49 3e bd 3c 57 3c
       0.26279628 0.17309943 0.1965619 0.01313704
0000f0 02 b2 e5 bd 99 74 70 bd e0 02 b4 3c b7 df 84 3c
       -0.11215593 -0.058704946 0.021974027 0.016219957
000100 b5 63 aa bc 4b a2 15 be bc 20 b7 bd a7 78 7a be
       -0.020799497 -0.14612691 -0.089417905 -0.24460088
000110 fc 31 5d bd 10 10 0b 3d 48 4f 12 bd ab b4 e6 3d
       -0.054002747 0.033950865 -0.03572014 0.112649284
000120 b3 89 81 3d f1 d0 75 3c 2b ea ff bd 2c af ca 3d
       0.06325092 0.015003429 -0.12495836 0.09896693
000130 12 4a 04 be 90 76 27 be 02 ed 16 be 96 72 0c 3c
       -0.1291888 -0.16353822 -0.14738849 0.008572241
000140 82 3b 83 bc 04 59 40 be a4 be 52 be 45 f3 21 be
       -0.016019586 -0.18783957 -0.20580536 -0.15815456
000150 9d b3 30 3d 09 ef d5 ba 4d 12 1a 3e 8b 13 a2 3d
       0.043140043 -0.0016321848 0.15046044 0.07913884
000160 fe 23 1f 3e 12 22 11 3d b5 13 5d bd 56 f1 5f 3e
       0.15541074 0.035432883 -0.053973872 0.21869406
000170 4f cb 2e 3e 3d 84 1d 3e 96 da 83 bd db c0 fa 3d
       0.17069744 0.15382476 -0.06438176 0.122438155
000180 85 9e 04 bc 27 73 9d 3c c7 63 b0 3d ed db 5e bd
       -0.008094435 0.019219948 0.08612781 -0.054408956
000190 f7 81 93 bc ef 3a e7 bd 7f d9 b1 bd 3d f1 2d be
       -0.018006308 -0.112905376 -0.08684062 -0.16986556
0001a0 40 8d 6d bd 38 2a 33 bd c0 4b 21 be ae 73 f5 bd
       -0.057996035 -0.043741435 -0.15751553 -0.11984955
0001b0 00 1c 1d be bb 40 79 3d c0 89 19 38 49 10 70 3c
       -0.15342712 0.060852747 3.6606332e-05 0.01465232
0001c0 96 ca 7e 3d 04 99 a5 3d a1 6a ff 3d 04 94 1a 3d
       0.06220492 0.08085826 0.1247151 0.037738815
0001d0 3f 45 34 3e 76 92 68 3e 6f 2b 79 3d ed d2 75 3d
       0.1760454 0.2271212 0.060832437 0.060015608
0001e0 e0 d4 4f ba d6 36 8f 3d d8 56 55 3c b5 ea b8 bc
       -0.0007928144 0.06992881 0.013021193 -0.022572855
0001f0 0d 9d 09 bd 03 56 b3 bd 2c f2 a4 bd 12 dc e5 bd
       -0.03359704 -0.0875664 -0.08054003 -0.11223616
000200 da ae 35 be f8 0d 83 3d f8 b9 26 bd 3e ce 28 be
       -0.17742482 0.06399149 -0.040704697 -0.16484925
000210 66 0c 53 be 2b a3 3e 3d 72 54 30 bd 9f 8d 80 3d
       -0.20610198 0.046542328 -0.043049283 0.06277012
000220 ca bb 57 bd b9 b3 dd 3d 57 db 0d 3e 81 99 ad 3d
       -0.052669324 0.10825295 0.13853203 0.08476544
000230 2f 56 95 bc 20 46 10 3d 4a 14 ae 3a 83 e7 0b bb
       -0.018229572 0.035223126 0.0013281193 -0.0021347709
000240 38 9c 38 bd 44 fe 71 3d b1 13 e2 3d 02 a8 32 3e
       -0.045070857 0.059080377 0.11038912 0.17446902
000250 69 fb b4 3d c8 28 b9 3c 69 ce a9 3c d4 75 a4 3d
       0.08837015 0.022602454 0.020728307 0.080302864
000260 82 28 3d 3e 20 bb 95 3d 48 d6 4e 3d c6 84 0b 3e
       0.18472484 0.07311082 0.050497323 0.13624868
000270 62 20 3c 3e 9a e0 06 3e 53 7b 22 3e 3d 2a 14 3e
       0.18371728 0.13171616 0.15867357 0.14469238
000280 a3 fc c7 3c 3a cc 77 3d 5a 06 0f 3e 17 26 26 3e
       0.024412459 0.0604975 0.13967267 0.16225468
000290 3e b8 01 3d 86 7b 4f 3c f1 f2 bb 3d 5b 8e 95 3d
       0.031669848 0.012663728 0.09177197 0.07302543
0002a0 b7 10 01 3d 06 c9 20 3d 4e 15 81 bd bd 27 32 be
       0.03151008 0.03925421 -0.06302892 -0.17397971
0002b0 e7 a7 24 bd f7 03 57 bd 7e db 63 bd 32 64 cb bc
       -0.040199187 -0.052494016 -0.055629246 -0.02482805
0002c0 6a d6 b9 bd 8b 16 5d be 8e 64 a6 bd 5d b3 f8 3b
       -0.09074099 -0.2159063 -0.08124648 0.007589741
0002d0 1b ef 2a 3c 48 8c 23 be 0a 88 35 be 23 e6 60 be
       0.010432984 -0.15971482 -0.17727676 -0.2196279
0002e0 81 10 19 be 76 13 15 bd d3 bb db bd 2b 4b 6d bd
       -0.14947702 -0.036395513 -0.10729184 -0.057933014
0002f0 47 15 bf 3c b1 ae 1a be fc 9d d0 3d a9 5a e6 bd
       0.023325576 -0.15105702 0.10186383 -0.11247761
000300 03 74 d5 bb d1 70 fd 3c 5a 0b f6 bd 79 51 6f 3d
       -0.006514074 0.030937584 -0.12013884 0.058427308
000310 50 e3 28 3c 15 73 5b 3d a6 d4 09 bd 8c 47 83 bd
       0.010308102 0.053576548 -0.033650063 -0.06410131
000320 ef 3b 96 3d 17 6d 49 bd e4 d1 27 bd c0 e0 c5 bc
       0.0733565 -0.0491763 -0.04097165 -0.02415502
000330 bb 5d 95 bd 04 b3 9f bd 6e ba 91 bd 57 51 90 bc
       -0.07293268 -0.077978164 -0.07115637 -0.01761691
000340 ea ef 36 bd 0f b9 9d bd 28 cd 76 3d 78 e5 97 ba
       -0.044662394 -0.07701313 0.060254246 -0.0011588773
000350 5e 50 f1 bd 1d d4 48 be 32 d9 6e 3d ea fd a5 bc
       -0.11782907 -0.19612165 0.058312602 -0.020262677
000360 ac 7e 2a 3d 84 a5 89 bd 81 63 a0 bd 84 36 85 3d
       0.04162471 -0.06721023 -0.07831479 0.06504539
000370 78 36 08 3e 30 cc 26 3e c0 8d ae 3c 49 1b a4 3d
       0.13302028 0.16288829 0.021307826 0.08013017
000380 af a9 eb 3d 19 4c 79 bd 1c ff 4d bd 0a 80 9c 3d
       0.11506974 -0.060863588 -0.05029212 0.07641609
000390 70 8a e8 3d 5c 11 3a bc ed c5 61 bd e1 cb d6 3d
       0.1135453 -0.011356678 -0.055120397 0.104881056
0003a0 98 5c 12 3e 7c db 35 bd 6d ea 82 3d fb e0 13 bb
       0.14293134 -0.04439877 0.063923694 -0.0022564519
0003b0 b0 f1 9c 3d 4d 9a bf 3d 78 e9 67 3d e8 5e 15 bd
       0.07663286 0.093556024 0.056619138 -0.036467463
0003c0 47 f2 a3 3d 38 9d 87 3d 66 87 90 3b 65 d4 f9 bd
       0.08005195 0.06621784 0.004410672 -0.12198714
0003d0 c1 2f 2e 3d 0d ef 09 3d 9d b6 08 bd 6e c9 4b 3d
       0.04252601 0.033675242 -0.03337728 0.049752645
0003e0 4a 93 a2 bc 95 5a 57 bb 8d 9f 37 bd ea 65 2c bd
       -0.019845624 -0.0032860388 -0.044829894 -0.04208938
0003f0 99 e6 16 3d 55 56 bc bc d7 50 6e bc e5 23 8d bc
       0.03684101 -0.022990385 -0.014545641 -0.01722903

conv1.bias f4 [16]
000000 e3 b4 0e bd 46 0e 0e be 7b 54 89 be 02 30 38 bd
       -0.034840476 -0.13872632 -0.26822266 -0.04496766
000010 24 60 49 be 56 bf 0a be fc 09 03 be b3 9d 0d be
       -0.19665581 -0.13549551 -0.12796777 -0.13829689
000020 77 a7 2b be f8 ac 28 bd f5 c1 85 be 3e 48 b9 3d
       -0.16763102 -0.04118058 -0.2612454 0.09046982
000030 2c 92 e5 3d 74 2e eb 3d 71 83 49 bd b0 c2 49 be
       0.11209521 0.114834696 -0.049197618 -0.19703174

conv2.weight f4 [32, 16, 5, 5]
000000 ca 53 09 bc 24 8d 70 bb 3b ba e7 3c 54 03 7c 3d
       -0.008381793 -0.003670522 0.028287044 0.06152661
000010 fa 47 d6 3d 01 89 8b 3b d6 d1 6e bd d4 ac 67 bd
       0.10462947 0.0042582755 -0.058305584 -0.056561306
000020 d2 61 9d 3d 7f 2f 0e 3e 85 5e a6 3c 2f 93 d8 bc
       0.07684673 0.13885306 0.020308742 -0.02643737
000030 89 af ca bd 7f 70 92 3d 8c b7 fc 3d d8 cc 55 3d
       -0.09896762 0.07150363 0.12339696 0.052197307
000040 50 10 a8 bd 80 be 31 bd a4 c6 4f 3d a9 2d 8f bc
       -0.08206236 -0.043394566 0.050726548 -0.017477827
000050 a6 d5 5f 3d ee c9 09 3d 2c 72 00 bd 8c b2 8a 3d
       0.05464711 0.03363984 -0.031358883 0.06772336
000060 6a 36 3e 3e df 6d cc bb e0 62 85 bd 6e 53 72 bc
       0.18575445 -0.0062386836 -0.065129995 -0.014790399
000070 28 85 87 3c 41 38 ee 3d 71 d7 69 bd 5f 39 c2 bd
       0.016542986 0.11631823 -0.057090227 -0.09483599
000080 db 4a ab bd 81 2c 8f bd be 0a e4 3c 03 a8 2e bd
       -0.08363887 -0.0699091 0.027837154 -0.042640697
000090 b7 ed cc bd 6c 87 6b bc 8e a8 23 3b 14 cb 52 bd
       -0.10006278 -0.014375549 0.0024972293 -0.0514632
0000a0 e8 68 ca bd 48 d4 45 bc 9b 31 a0 3c 0a 4a bf bc
       -0.098832905 -0.012074538 0.019554904 -0.023350734
0000b0 9c 83 a0 bd 02 a5 2a be 96 d2 85 bd 84 b0 3b bc
       -0.078376025 -0.16664508 -0.06534307 -0.011455659
0000c0 88 ad e2 3c a6 06 88 bc 4d ed bb bc 8f af 19 3d
       0.027670637 -0.016604733 -0.022940302 0.03752094
0000d0 ca 30 38 bb bf 61 33 3d fd cb 36 bd ae a7 b0 3c
       -0.0028105252 0.04379439 -0.044628132 0.02156433
0000e0 1b bb 9e bd 7d c4 ab 3a 3d 04 8c 3c 21 4f b8 bd
       -0.07750531 0.0013104823 0.017091865 -0.08999468
0000f0 21 61 68 bc 46 d9 49 bd 01 e9 1a bd 85 6d e0 bd
       -0.014183314 -0.049279474 -0.037819866 -0.10958389
000100 64 60 8f bb fb 15 73 3d 0c 22 ea bb 2a a3 c9 bb
       -0.0043755043 0.059347134 -0.007145172 -0.006153484
000110 e6 1c 29 3c df a4 63 bc 55 53 63 bd af bf 99 3c
       0.010321831 -0.013894289 -0.055499393 0.01876816
000120 4b 9d b2 3b 0a df fc 3c 8b f1 00 bd db 1e 68 bc
       0.0054508797 0.030868072 -0.031480353 -0.014167513
000130 e6 b9 71 bc 6b 69 ef bd 8b 8d 88 bd 9a a9 1a be
       -0.014753794 -0.11690029 -0.06667622 -0.1510376
000140 35 c6 5d 3a d6 d2 dd 3c e4 24 b9 bd 61 9e 31 be
       0.0008460016 0.027078073 -0.090402395 -0.17345573
000150 9d 0a da bd 4e 96 07 3d de e5 9c 3d e1 2b 6f bd
       -0.106465556 0.033102326 0.07661031 -0.058391456
000160 09 eb 39 be cc 86 f1 bd db dd 9a 3d f7 8a ee bc
       -0.18156065 -0.117932886 0.07561847 -0.029118998
000170 86 34 04 3b 57 35 ef bd 8f 04 4b bd bf 1b 15 bd
       0.0020172908 -0.11680096 -0.049564894 -0.036403414
000180 db da 80 bd 9b 70 b1 bc fc de 9e bc b0 8c 7e 3a
       -0.06291743 -0.02166014 -0.019393437 0.0009710295
000190 1c 81 b6 bd a1 39 f1 bd 18 83 03 be cd c5 92 bd
       -0.089113444 -0.1177857 -0.12842977 -0.07166634
0001a0 b2 4b 4e be 54 72 53 bd b8 9c e6 bc 69 f2 f3 ba
       -0.20146063 -0.051622704 -0.028150901 -0.0018611673
0001b0 b7 75 6c bc c3 08 68 bd 7f 3f 0b be 93 21 2d bc
       -0.014432362 -0.05664898 -0.1359844 -0.010567087
0001c0 54 d6 f9 bc 65 47 02 3c f8 18 e8 bc 8c 23 7c bd
       -0.030497707 0.007951592 -0.028332219 -0.061557338
0001d0 bb 21 3f be 9a 56 75 bd 32 7c 8a 3d 62 5d 50 bd
       -0.18665211 -0.059897043 0.067619696 -0.050870307
0001e0 01 49 b2 bd 49 2c a3 bd 7f 1b 0e be 23 6e 98 bc
       -0.08705331 -0.07967431 -0.13877676 -0.018607205
0001f0 41 0c 89 bd 6a 08 5c 3d 72 b5 c2 3d c6 aa 83 bd
       -0.0669179 0.05371896 0.09507264 -0.06429057
000200 58 ec 33 bd 64 9a 00 bd 05 f2 bb 3a 99 3a 4f 3d
       -0.043926567 -0.03139724 0.0014339095 0.050592992
000210 87 c9 2a bd d5 fd 8c 3c 07 8e 2c 3d b8 ed 05 3d
       -0.041696098 0.01721088 0.042127635 0.03269741
000220 28 b8 8a bd 99 90 36 3d 52 f0 2c bd dd ff 2e bc
       -0.06773406 0.044571493 -0.042221375 -0.01068112
000230 46 e3 9f 3d 9c bf a6 bc d3 4d fe bb 9b 1e d8 bc
       0.07807021 -0.020355038 -0.007760742 -0.026381781
000240 81 19 d5 bc 4c 8b 25 3d dc 75 20 3d 55 0b 0c be
       -0.026013138 0.040416047 0.0391749 -0.13676198
000250 da 13 d8 bd ac 26 b9 3b 9b 21 9f bc e9 ea 20 bd
       -0.105506614 0.005650362 -0.019425204 -0.039286528
000260 4c a7 96 bd 5e a7 5a bd f5 f7 53 bd 2f f1 87 bd
       -0.07356128 -0.05338227 -0.051750142 -0.06637799
000270 23 f7 3a bd 4b ba 15 bd 4e 57 f2 bb 42 a2 7b bd
       -0.045645844 -0.036554616 -0.0073956614 -0.061434038
000280 28 a5 95 bd 82 da db bb d5 77 d4 bc e7 fb fd bc
       -0.07306892 -0.006709398 -0.025936047 -0.031003905
000290 c6 fe a2 3d 9f 89 33 bd 81 27 6f bd 88 5e b2 bc
       0.079587504 -0.043832418 -0.058387283 -0.021773592
0002a0 b4 32 94 3c 5e e5 95 bc 10 82 a1 bd f5 01 07 be
       0.018090583 -0.018297847 -0.078861356 -0.1318434
0002b0 10 9f bc bd 64 c3 db bc da b5 2d be 86 da 28 bd
       -0.09210026 -0.026826568 -0.16963902 -0.041224025
0002c0 8b 40 ce bd 59 f7 ac bd 93 f1 95 bc 95 72 85 3c
       -0.10070904 -0.08445615 -0.018303668 0.016289989
0002d0 cf 9b d9 bc 4f 2f ba bb 41 73 29 3d 51 85 2b 3d
       -0.026563553 -0.005681909 0.04136968 0.041875187
0002e0 e5 44 cb bc d9 bb 30 bd 41 d8 30 3d 48 d9 92 bb
       -0.024813125 -0.043147895 0.043174986 -0.0044814683
0002f0 12 5b bd bb f8 12 aa 3c 87 5c 0e bd 1f 2f 6e bd
       -0.0057786787 0.020760998 -0.03475621 -0.058150407
000300 62 32 9f bd 2a 55 89 3d be 70 87 3d de 57 22 bd
       -0.07773282 0.06705697 0.06613301 -0.039634578
000310 4a d8 7a bd 8e 20 08 bd 1f 17 92 bc b0 fd ca bd
       -0.061241426 -0.03323417 -0.01783329 -0.09911668
000320 1d 37 3a be 46 d6 36 be 02 c2 03 be 7c b2 c8 bd
       -0.18185087 -0.17855176 -0.12866977 -0.09799668
000330 48 31 2d bd 09 cb 83 bd 35 32 e4 bd 05 4c c8 bd
       -0.042283326 -0.0643521 -0.11142389 -0.097801246
000340 56 28 c1 bd 44 0b a1 3d 7f cb ec bd 9d 10 1d be
       -0.094315216 0.07863477 -0.11562251 -0.15338369
000350 b1 60 55 bd 78 45 34 3d 32 5e 84 3d 00 8c 9a bd
       -0.052094165 0.044011563 0.06463279 -0.07546234
000360 45 d2 17 be b8 c4 1f be 67 56 51 bc af d8 98 3d
       -0.14826305 -0.15602386 -0.012776948 0.07463204
000370 2d 76 08 bd f2 0f f6 bc ab 03 f3 bd 9b c9 c1 bd
       -0.033315826 -0.0300369 -0.11865934 -0.09462281
000380 f9 2b 09 bd 30 5f 55 3e 19 e1 16 3e 42 f6 7e 3e
       -0.0334892 0.20837092 0.14734305 0.24898627
000390 82 d6 19 3e 4a df ac 3d 9e e4 d8 3d f3 ba d9 3d
       0.15023234 0.084410265 0.1059048 0.10631361
0003a0 18 bc fb 3d 6c b0 8a 3d 80 84 47 b8 01 9f c6 3d
       0.122917354 0.06771931 -4.7568697e-05 0.09698296
0003b0 66 97 f9 3d 92 db 00 3e a3 32 9f 3d 4c c2 4d 3d
       0.1218708 0.1258376 0.0777333 0.050234124
0003c0 2e b1 05 3e 9d 25 35 3d d5 8e 33 3e aa 09 40 3d
       0.1305587 0.044225324 0.17534955 0.046884216
0003d0 65 fe c5 3c 4b 83 11 3e 80 83 07 3d a7 f7 39 3e
       0.024169156 0.1421024 0.033084393 0.18160878
0003e0 5c a9 12 3e a9 d0 b7 3c ae 3c bc 3d 38 6a e2 3d
       0.14322418 0.022438364 0.09191261 0.11055416
0003f0 6d 7a b7 3d 99 0f 6b 3d 82 10 c0 3c 54 4b a8 3d
       0.08958898 0.057387922 0.023445372 0.08217493

conv2.bias f4 [32]
000000 b9 61 de 3d d3 ff 2d 3e 2c 0c 74 3e ba 75 3a 3e
       0.10858483 0.1699212 0.23832768 0.18208972
000010 01 c6 66 3e 3e 66 1f 3e 6d 8b 4b 3d ef 4e 51 bd
       0.2253647 0.15566346 0.049693514 -0.051100668
000020 28 5b bc 3d d3 62 d1 3d d0 b0 55 3e 95 35 47 3d
       0.09197074 0.10223927 0.2086823 0.048635084
000030 b5 91 1e 3e 72 4a 99 bc 24 9f 1e 3e a3 d7 33 bd
       0.1548527 -0.018712256 0.15490395 -0.04390682
000040 d4 57 31 be 14 a3 9b bd a1 53 75 be 11 0a d2 3e
       -0.1731866 -0.07599464 -0.23957683 0.41023305
000050 d0 a5 5b be 1c b1 9e 3e 73 48 a0 3d e0 3b 2a be
       -0.21449971 0.309945 0.078263186 -0.16624403
000060 be ad f3 3b 13 9d 08 bd 98 1e a8 3d d2 6a 93 3c
       0.007436483 -0.033352923 0.0820896 0.017995272
000070 66 a6 89 3e 54 ae 8b 3e e7 8e fd bd 96 4d 87 be
       0.26884764 0.2728144 -0.12380772 -0.2642638

fc1.weight f4 [120, 800]
000000 71 f2 b2 bd e8 01 1b be e7 a5 7b bd f2 b1 06 be
       -0.08737648 -0.15137446 -0.061437514 -0.13153818
000010 ed 2b 4e be cc 90 02 bc ed 25 22 bd c0 76 76 bd
       -0.20133944 -0.007969093 -0.03958695 -0.060171843
000020 25 7a 49 bc 94 57 f9 bd 50 78 d7 bc f9 d2 a8 bb
       -0.012297188 -0.12174907 -0.026302487 -0.005152103
000030 8d 74 94 3d cd 07 6b 3d a6 e6 7f bd ba d5 56 bd
       0.07248793 0.057380486 -0.062475823 -0.05244992
000040 bd 5c 92 ba f5 92 dc 3d c1 2a 6e 3d 09 14 cf bd
       -0.0011166554 0.10770217 0.058146242 -0.10111243
000050 5c 7b f4 bd 4e 91 3b bc 13 ef 79 3d 2f c5 ac 3d
       -0.119375914 -0.011448218 0.061019015 0.08436047
000060 6f 1c 48 bd ef 61 92 be 33 42 50 be 42 e3 99 bc
       -0.04885524 -0.28590342 -0.20337753 -0.018785123
000070 f6 ca af bb a8 c3 1e be d5 99 e3 bd 9e 82 38 be
       -0.005364771 -0.15504324 -0.111133255 -0.18018577
000080 f6 6e 30 3d 12 aa 97 bd e7 65 c7 bc aa 9f 55 bd
       0.04307457 -0.07405485 -0.024340583 -0.05215422
000090 ef 31 87 3c 3f 61 3f 3d ae eb f4 3d 41 e4 ee 3d
       0.016503302 0.0467236 0.11959015 0.1166463
0000a0 bb 2e e8 3b 5b 3d 21 3e 0c 69 34 3e c9 fc eb 3d
       0.007085649 0.15746062 0.17618197 0.11522824
0000b0 19 a0 1b 3e b6 73 13 3e b6 11 af 3d 8c 7e 08 3e
       0.15197791 0.14399609 0.085483 0.13329524
0000c0 b8 99 e3 3d d0 d2 af 3c 43 ff 26 3e 53 23 40 3e
       0.11113304 0.021462828 0.16308312 0.18763475
0000d0 b8 d8 16 3e 55 16 18 3e eb 27 c3 3c ad a4 3a 3e
       0.14731109 0.14852269 0.023822745 0.18226881
0000e0 17 df 89 3d 73 90 aa bc d5 4f b0 bb d6 2d 2a bb
       0.06732004 -0.020820832 -0.0053806105 -0.0025967262
0000f0 9d 82 0f 3e e2 e3 1f 3d 07 1c 94 3d 25 4f 80 3d
       0.14014669 0.039035685 0.07231908 0.062650956
000100 44 9b 4b 3e 85 63 81 3d 07 a4 03 3c 6d 87 c4 3d
       0.19883448 0.0631781 0.008034713 0.09596143
000110 ed 60 3e 3d fc 36 0f 3e df 37 0b be 3b 02 03 be
       0.046479154 0.13985819 -0.13595532 -0.1279382
000120 10 56 41 3c 52 d1 b2 bc 42 fd a2 bc 93 c3 0a be
       0.011800304 -0.021828327 -0.019896153 -0.13551168
000130 44 ee d6 39 cc 8c c9 3d 21 7c 8b bc 77 b5 28 3e
       0.00040994782 0.09841308 -0.017026963 0.16475473
000140 23 84 22 be 8f d4 2c be 55 a9 0c 3c 2b bd 5c 3c
       -0.15870719 -0.1687796 0.008585294 0.0134728355
000150 aa 12 70 3e d6 b1 d8 bd 1e 39 84 3d 59 b6 e1 3d
       0.2344462 -0.105807945 0.06456207 0.11021108
000160 3e 2a 0c 3e ee f7 22 3e dd 6b 0d be 43 63 81 bc
       0.13687989 0.1591489 -0.13810678 -0.015794402
000170 59 1a 89 bb 11 a5 66 3d 78 bc b5 3d 90 42 dc bc
       -0.004184049 0.056309763 0.08873838 -0.026887208
000180 39 6f 37 be 2c ab 87 3d c8 90 08 bd 94 6f 40 bd
       -0.17913522 0.06624445 -0.0333412 -0.04698141
000190 35 68 21 bd 48 d6 ab 3c 99 1c 52 bd fd 30 b3 bb
       -0.03940602 0.0209762 -0.051296804 -0.0054684863
0001a0 3e 59 f1 bd 7b f0 b7 bd f7 78 ab 3c 74 db b6 3d
       -0.117846 -0.08981415 0.020931704 0.08928576
0001b0 1f 01 72 bc b4 a3 a2 bd a4 e3 45 3c 77 42 e1 bc
       -0.014770775 -0.0794138 0.0120782 -0.027497513
0001c0 b6 76 40 3d 5f f0 a0 bc 14 fb cb 3c c5 b7 93 3d
       0.04698821 -0.019645868 0.024899997 0.07212786
0001d0 59 96 b6 3d af 80 e5 3d 60 71 1a 3e 2e d4 b0 3d
       0.08915395 0.11206185 0.15082312 0.0863422
0001e0 a2 e3 32 3e d6 a2 7f 3d 1c b2 20 3e bc aa ec 3d
       0.17469648 0.06241115 0.15692943 0.115560025
0001f0 92 68 59 3e c8 3a 9a 3c 94 82 47 3b ea a6 32 3b
       0.21231297 0.018826857 0.003044282 0.0027260133
000200 7e a3 f8 bd 85 c5 36 bd b8 e8 de 3d 52 b0 01 bd
       -0.12140559 -0.044621963 0.10884231 -0.031662293
000210 14 90 b1 bb a8 49 90 bd 66 39 19 bd 85 8a 65 3c
       -0.005418787 -0.07045299 -0.037408255 0.014010076
000220 7f d1 42 3c a1 71 d7 3d ea 2c 02 3d e9 10 62 3b
       0.011890768 0.1051972 0.031781115 0.0034494943
000230 d0 2c dd 3c 24 7a 60 3d 93 1e 93 3d f9 bf b6 3a
       0.026998907 0.054803982 0.07183566 0.001394271
000240 69 a5 17 3d 7a 91 86 bd 64 31 da 3d be 73 fc 3c
       0.03702298 -0.06570716 0.10653952 0.030816909
000250 b2 be 6e bd 8c e7 02 bd e4 00 0c be 04 9f 30 3d
       -0.05828733 -0.0319591 -0.13672215 0.0431204
000260 f0 28 d6 3d cc 91 30 3d 6a cb ad 3d 47 a2 cf bd
       0.10457027 0.043107793 0.08486064 -0.10138374
000270 e6 0c 0a 3d d8 d4 d5 3d 8f b8 e8 3c a1 3b 22 bd
       0.033703707 0.10440987 0.028408317 -0.039607648
000280 26 13 08 bd 2c ec 9a 3d 57 4f ca 3d 42 a1 cd 3b
       -0.033221386 0.075645775 0.09878414 0.006275327
000290 51 94 ad bd 6c 84 fe bb e3 e9 12 3c 93 fd a3 3d
       -0.08475555 -0.0077672508 0.008966896 0.0800735
0002a0 95 01 7a bc e2 a0 2f bd df 28 b8 3d 1c 29 da 3c
       -0.015259166 -0.04287804 0.089921705 0.02663093
0002b0 34 40 ab ba c6 9b 82 3b 20 e8 49 3d 1d 18 98 3e
       -0.0013065399 0.003985855 0.049293637 0.29705897
0002c0 43 b7 01 3c 14 9e 4d 3c 3b 16 07 3b 10 fc 40 ba
       0.007917228 0.012549896 0.0020612616 -0.0007361779
0002d0 ef 1d 8d 3e 50 1e f9 3d 01 2e bd 3a 3e ef a2 bb
       0.275619 0.12163985 0.0014433266 -0.0049723675
0002e0 40 9e 96 bd ad 65 65 3d f5 44 b9 3c 4a d1 b8 3d
       -0.073544025 0.05600517 0.02261589 0.09024294
0002f0 4d 30 15 3e 50 da be bc 44 62 c9 bd ff 18 1b be
       0.14569207 -0.023297459 -0.09833196 -0.15146254
000300 6b 10 9b bd 60 07 25 3c 33 95 1f 3e 5b 0a 8e be
       -0.07571491 0.010072559 0.15584259 -0.27742276
000310 09 7a 85 bd c8 a0 4a bd 84 d4 25 3c bf df dc 3d
       -0.06517417 -0.04946974 0.010121468 0.10784864
000320 4a da a1 bd e9 6e 41 3d a3 48 8e 3d c0 66 ee 3d
       -0.079029635 0.047224913 0.06947448 0.11640692
000330 2d 4a 41 bd 27 d8 69 bd 28 90 1a 3d b9 4b d2 bc
       -0.04718988 -0.057090905 0.037735134 -0.025670873
000340 ba c9 c0 b9 f4 c9 20 bd ac 54 11 3e 00 97 9d 3d
       -0.00036771392 -0.039255098 0.14192456 0.076948166
000350 12 8c 6a bc 03 e7 a6 3d ad bb e2 3d 2a 58 bd 3d
       -0.014315622 0.08149531 0.110709526 0.092453316
000360 49 da 10 3d 99 0e c4 ba d5 fe 05 3d 02 c5 d3 3d
       0.035364423 -0.0014957964 0.03271373 0.10340311
000370 77 56 f4 3d b0 b9 ba bd a8 db 43 bd 14 38 53 3d
       0.11930554 -0.09117448 -0.047816902 0.051567152
000380 55 4a 10 3e 99 6d 15 bd a7 09 1a 3e 84 5e bc 3d
       0.14090855 -0.036481474 0.15042745 0.09197715
000390 85 31 4c bd db 04 0e bd ce ce 78 bc e5 4e 8a 3c
       -0.049851913 -0.0346726 -0.015186025 0.016883323
0003a0 81 e3 87 bb 4a 58 1a be b5 33 91 be 83 d2 45 3d
       -0.0041469936 -0.15072742 -0.28359762 0.048296463
0003b0 ea 05 17 3c a0 e1 07 3a 14 15 d1 bd c8 3f a2 be
       0.009217719 0.0005183462 -0.102090985 -0.31689286
0003c0 e3 77 50 be c7 df a9 3b c4 24 72 bd f9 2a 9e bd
       -0.20358233 0.005184147 -0.059117094 -0.0772304
0003d0 42 ed 44 be ff de 8b bd 67 f6 fb bd 25 2f 35 bd
       -0.19231132 -0.068296425 -0.12302857 -0.044234414
0003e0 bb e1 c4 3c 78 8b 22 be 05 1a 07 bd ad 33 03 3d
       0.024033418 -0.15873516 -0.0329838 0.032031704
0003f0 16 ee fa 3d 0b 85 b6 3d 6b 5f 03 3d 4b 04 36 bd
       0.122524425 0.08912095 0.03207342 -0.044437688

fc1.bias f4 [120]
000000 1b 3d 3b 3e 67 26 fa bc a5 68 8e 3d be f3 b6 3d
       0.18285029 -0.03053589 0.06953553 0.08933209
000010 ae 5c 21 3d 35 dd ad 3e 88 5f 11 bd c8 0b af bc
       0.039395027 0.3395783 -0.035491496 -0.021367922
000020 79 ff 41 3e 0d e7 72 3e ef 63 10 3c d1 30 9b bd
       0.18945111 0.23720951 0.0088128885 -0.0757767
000030 e4 fb 11 bd 6b c3 a4 3e 13 aa 76 bd f0 ba 72 bd
       -0.035640612 0.32180342 -0.06022079 -0.05926031
000040 96 42 1b 3e 13 10 34 bc 47 92 38 bd 6f be 7a bd
       0.1516212 -0.0109901605 -0.045061376 -0.061216768
000050 cd 72 15 3e 48 29 41 bd d7 72 8f bc dc b1 52 3d
       0.14594574 -0.04715851 -0.017510815 0.05143915
000060 3e f2 63 bd 28 d6 a2 3e b9 39 5f bd 63 07 1e 3d
       -0.055650942 0.31804013 -0.054498408 0.038581263
000070 d9 95 3f 3a 1a 31 a3 bd 05 31 d5 bc cd d9 98 bd
       0.0007308401 -0.0796835 -0.02602435 -0.07463417
000080 bf 7b 5c 3d 58 c7 38 bd 33 6e 14 bd 49 db 14 3c
       0.05382895 -0.045111984 -0.036237907 0.009085485
000090 14 79 67 bb 6e fa 77 3e 0c 11 14 3e 5f 80 07 bd
       -0.003531997 0.24216625 0.14459628 -0.03308141
0000a0 e1 e4 e8 bc e8 85 87 bc 91 4c e9 bc 0b 63 59 3e
       -0.02842945 -0.016543344 -0.028478893 0.21229188
0000b0 74 f1 64 3c 3f 5c 92 3e 39 1e 05 bd b5 17 d2 bc
       0.013973583 0.28586003 -0.032499526 -0.02564607
0000c0 d8 f4 9d 3e b3 ee be 3c 15 f8 9a 3c fc c8 52 3e
       0.30850863 0.02330718 0.018917123 0.20584482
0000d0 1f 5d 10 3e c0 13 98 bc ec fa 10 bc 3b 68 6f 3e
       0.14098023 -0.018564105 -0.008848887 0.23379605
0000e0 6c c7 a7 3d 2d 3e 8f 3d 5d 01 7a 3e b3 f7 dd 3d
       0.081923336 0.06994281 0.24414583 0.108382605
0000f0 77 5a de bc 56 61 8e bb 9c be 0e 3e 07 b6 07 bd
       -0.027142746 -0.0043450994 0.13939899 -0.03313258
000100 58 51 28 bd 8d 4a 3e 3b ef 5b 74 3d d8 2f a4 bd
       -0.0410932 0.0029036135 0.059657987 -0.08016938
000110 5d a8 4e bd 01 81 84 bb 44 83 b8 3e c1 7a d8 bc
       -0.050453532 -0.004043699 0.36037648 -0.026425721
000120 ba d0 08 3c c7 3c 16 bd 99 18 b7 3a 42 de 0d bd
       0.008350546 -0.036679056 0.0013969123 -0.03463579
000130 9e fc 14 bd fa 56 eb bd 12 1b 63 3e a1 75 ce bd
       -0.036373727 -0.11491199 0.22178295 -0.1008103
000140 ad 7c 72 bd 7b e9 77 3d cd df ac bc 83 22 8f 3e
       -0.05920093 0.0605254 -0.02110281 0.27956018
000150 07 e9 59 bd 3b f4 c9 bd f9 a3 0a bd 1e 48 4b bd
       -0.053200748 -0.098610364 -0.033847783 -0.049629323
000160 39 a4 53 bd 4b 11 98 3e 71 e2 73 3e 59 05 a1 3d
       -0.051670287 0.29700693 0.2381685 0.07862348
000170 0a bb 2e be 68 0c 84 bd fd ef 59 3c d7 94 e1 3a
       -0.17063537 -0.06447679 0.013301847 0.0017210495
000180 d9 92 3e 3e 22 b9 c7 3c e6 2c ee bc 7e 56 2a bd
       0.18610705 0.02438027 -0.029074144 -0.04158639
000190 ad a1 8b 3e 16 47 68 3e 3a 84 22 bc 66 84 c5 bd
       0.27271786 0.22683367 -0.009919221 -0.096443936
0001a0 cc 2c f2 bc b5 41 28 bd 03 ad 4e 3e 13 c1 d5 3c
       -0.029562376 -0.041078288 0.20183186 0.026093042
0001b0 0d 80 96 be cb 86 32 3d 59 f9 58 bd 3a 6f 46 3e
       -0.2939457 0.04358558 -0.05297217 0.19378367
0001c0 27 39 c9 ba 0c b6 a1 3d 8a 96 f3 bc 94 ac 45 3e
       -0.0015352116 0.07896051 -0.029734869 0.19304115
0001d0 89 9e 24 bd 9e fd ca bb 2e f0 8e 3e d2 f6 b0 bd
       -0.040190253 -0.0061947843 0.27917618 -0.08640827

fc2.weight f4 [84, 120]
000000 38 e9 0b be 13 de 37 3d 73 05 ff bd da 67 c1 bd
       -0.13663185 0.04488952 -0.12452211 -0.09443636
000010 f4 d6 ab 3d b3 34 26 3c e6 56 2e bd 47 22 dc 3d
       0.083906084 0.0101444 -0.04256334 0.107487254
000020 94 6d e9 bd 9b f7 b0 bd bc 7c b2 bd 91 99 6c bc
       -0.113978535 -0.08640977 -0.087151974 -0.01444091
000030 12 15 80 3d 4f 6b d3 3d 41 3b ba 3c 5a 50 3b bd
       0.06254019 0.10323202 0.022733333 -0.045730926
000040 30 a1 25 3d 49 69 75 bd d5 3a bd 3c 27 cf a6 bc
       0.040436924 -0.05991486 0.023099342 -0.02036245
000050 73 0c 11 3e 04 13 6a bc f5 de bc bd 83 8d af 3c
       0.14164905 -0.01428676 -0.09222213 0.021429783
000060 f2 53 c8 3d 18 23 b9 bc 62 fd 35 3d 93 3a a6 bd
       0.09781636 -0.022599742 0.044431098 -0.08116641
000070 e3 1d ac bd 85 56 aa bd 2f 05 1c 3d d4 16 1d 3d
       -0.08404138 -0.083172835 0.03809088 0.03835185
000080 9f fd 9c 3c a6 84 ef bc f6 44 a1 bd dd 13 9a 3d
       0.019163905 -0.029238056 -0.078744814 0.0752332
000090 6f 14 15 3e f6 98 3d 3d 4d 25 04 be 27 8c 19 3c
       0.14558576 0.046288453 -0.12904854 0.009371794
0000a0 4b 89 22 bb f8 d2 97 3b c6 a3 0d bd 22 8b 10 bd
       -0.0024801071 0.0046333037 -0.034580015 -0.035288937
0000b0 92 31 1a bc df be 02 be f7 61 a0 bd 29 a6 70 bd
       -0.009411233 -0.12768124 -0.07831185 -0.058752213
0000c0 31 fe 44 3e f9 8f 8e 3d 6e ff 15 3e 57 84 be 3d
       0.19237591 0.06961054 0.1464822 0.093025856
0000d0 88 b6 26 be d0 57 e5 3c 0c 0e 5e 3d 06 c3 ae 3b
       -0.16280568 0.027995974 0.054212615 0.005333307
0000e0 18 5a d5 bd a9 46 f4 bd 8f 00 b7 3c 09 d4 51 3d
       -0.10417575 -0.1192754 0.022339134 0.051227603
0000f0 e4 c9 a4 ba df 37 26 3d eb 74 87 3e 92 1b 9d 3c
       -0.0012572375 0.040580627 0.2645639 0.019178186
000100 06 7e c2 3c 97 82 03 3d a9 fa cf 3c 4e 8c 2b 3d
       0.023741733 0.032106962 0.025388079 0.04188185
000110 3f 74 b2 bd 0b 47 56 3c 57 e1 b1 3d 8b d8 1a 3c
       -0.087135784 0.013078461 0.08685558 0.009451042
000120 eb 38 94 3e 67 11 e2 3a 69 61 31 bd eb c3 0a 3d
       0.28949675 0.0017247618 -0.04330579 0.03387825
000130 33 36 a4 bd 01 ab ad 3b 12 57 25 3e 8c fe 11 3e
       -0.0801815 0.0052999263 0.16146496 0.14257258
000140 09 b1 9b 3c 55 70 8c 3d 73 de 70 3d a2 54 e4 bd
       0.019005315 0.06857363 0.058805894 -0.11148955
000150 91 25 bd 3c 64 e4 9d 3c 12 87 43 3d f8 cd 38 3c
       0.023089202 0.019273944 0.047736235 0.0112795755
000160 8c cb c3 3d 3b 9e 30 3e b8 f7 6f bd f6 16 0f 3e
       0.09560308 0.1724786 -0.058585852 0.13973603
000170 03 c5 76 3d a0 f8 7d 3d 34 4d a2 3c a4 8d 9b bd
       0.06024648 0.062004685 0.019812204 -0.07595375
000180 b8 2b 92 bd 84 8a 42 3e 62 5e 4c bc 7c 9e b4 bc
       -0.07137245 0.18998152 -0.0124736745 -0.022048227
000190 df 01 3b bd 5b a8 2c 3e 8c 26 37 3d 4e c3 25 3e
       -0.04565608 0.16861098 0.044714496 0.16187784
0001a0 75 e3 a5 3d 6f 22 26 3d 12 57 b7 bd c2 b3 f6 bc
       0.081000246 0.040560182 -0.08952154 -0.030115012
0001b0 83 bd 49 bd 5b 66 e0 3d 96 44 49 3e f0 38 5f bd
       -0.049252998 0.10957023 0.1965507 -0.05449766
0001c0 16 a4 b7 3d 18 7f bf 3d b1 ca b1 ba fb e9 e0 bc
       0.08966844 0.09350413 -0.0013564435 -0.02745532
0001d0 2f 3d d4 3b 5f ca f6 3c ff 3e 62 ba 77 72 87 bd
       0.00647702 0.030125795 -0.0008630603 -0.06613629
0001e0 37 bd 19 3d 68 ae 21 3d bc a3 f8 3d 12 1f cb bd
       0.037533965 0.039472967 0.12140605 -0.099180356
0001f0 0b f6 d7 bc 86 1b c7 bd 30 30 4a bc 49 03 57 bd
       -0.02636244 -0.097220466 -0.01234059 -0.052493367
000200 ee e9 7f bd 21 29 16 bd c5 dc 36 bd ca 61 81 3b
       -0.062478952 -0.036660317 -0.044644136 0.003948425
000210 98 7b 69 3c 2d 71 60 3d a8 6e 88 bd c8 54 04 3c
       0.014250658 0.054795433 -0.06661731 0.008076854
000220 42 03 a1 3c 00 82 49 3b ca f6 05 3d fc b7 4d 3d
       0.019654874 0.0030747652 0.03270606 0.05022429
000230 c1 6b e8 bd 14 81 06 bd 60 f7 ab bc 97 d2 e8 bd
       -0.113486774 -0.032837942 -0.020991981 -0.11368292
000240 1c 6e 3c be f1 f8 b1 bd 20 d8 38 3b 9c 26 bc bd
       -0.18401378 -0.0869006 0.0028204992 -0.09187052
000250 0e 32 9c bd 32 7b 58 bd 36 55 aa 3d 28 2c aa bc
       -0.07626735 -0.052851863 0.08317034 -0.020773008
000260 0d 72 b7 bd 99 2b b5 bd 8c ad 92 bd ea 92 fd bc
       -0.089573 -0.08846206 -0.07162008 -0.030953843
000270 15 46 e5 bd 83 5c fd bd 31 a3 b5 bc 10 da 83 3b
       -0.11195008 -0.12371161 -0.022172542 0.004023798
000280 90 5f 43 3d a1 30 2c bd 80 ae 97 3c 56 99 9a bd
       0.047698557 -0.042038564 0.018515825 -0.07548778
000290 e5 07 3a bd 43 31 70 bd 18 1a 4a 3d 48 45 10 3d
       -0.045417685 -0.05864073 0.04934129 0.03522232
0002a0 2f 47 3d bd 8f e4 42 bd 08 74 97 bc b2 a3 23 3c
       -0.046210464 -0.04758125 -0.018487945 0.0099877585
0002b0 ee e5 ae bc 50 fa b0 bc 18 41 af bd 13 66 e0 bb
       -0.021349873 -0.021603733 -0.085573375 -0.0068481057
0002c0 be c6 dc bd e5 bd cb bd 48 d8 8a 3c 60 80 cb bd
       -0.107800946 -0.09948329 0.016948834 -0.09936595
0002d0 e6 81 be bd b4 3d 85 3d 53 d7 9c bd 98 ad 96 3c
       -0.0930212 0.065059096 -0.07658257 0.018393323
0002e0 0f c5 5b bd 60 df 14 3d d5 dc fe bd c9 bd 45 3d
       -0.053654727 0.03634584 -0.12444464 0.048276696
0002f0 e3 90 58 bd 66 62 86 bd 9e d8 b5 bd 32 9c b7 bb
       -0.05287255 -0.06561737 -0.08879207 -0.0056033367
000300 07 8b a0 bd dc 46 a3 bc 2c d1 6f 3d 70 70 41 bd
       -0.07839017 -0.01993125 0.05854909 -0.04722637
000310 aa 7d 88 bd 36 1a b0 bd 28 90 8a bd 85 b9 c4 bd
       -0.066645935 -0.08598749 -0.06765777 -0.096056975
000320 ce a0 99 bd 3d 58 46 bd df 0f 48 3d ad eb d9 bd
       -0.07501374 -0.048423994 0.04884326 -0.10640655
000330 08 eb 36 bc 14 6e 15 bd 50 4a 07 bc 08 f6 b1 bc
       -0.011164434 -0.03648193 -0.008257464 -0.021723762
000340 8f be 5b bd 5c c0 75 bd 4d 81 0c be 3d 64 43 3d
       -0.053648528 -0.0599979 -0.137212 0.047703017
000350 c9 38 43 3c 57 85 e6 bd 38 4c b9 bd 97 ee d3 3c
       0.011915394 -0.11255901 -0.09047741 0.025870604
000360 cf d0 b9 bd f3 39 15 bd 00 0a 07 ba 50 33 9f 3b
       -0.0907303 -0.036432218 -0.00051513314 0.004858412
000370 04 ca 09 3c f9 e5 52 3d b8 b9 67 bd 28 67 f3 bd
       0.008409981 0.05148885 -0.0565736 -0.1188491
000380 a1 ae b8 bd 87 fc 35 bd 47 0c 67 3d 2a ef 4a bd
       -0.09017683 -0.044430282 0.056408193 -0.04954449
000390 04 2f b5 bd eb ec e1 bc 4b 69 b2 bd 6c df 0e be
       -0.08846858 -0.027578792 -0.08711489 -0.13952416
0003a0 5c 5e 8e bd 2e 55 6c bd 54 39 79 3d 1f 66 55 3d
       -0.06951591 -0.05769842 0.060845688 0.052099343
0003b0 0d 45 80 bd e0 dd 9b 3b 92 44 37 bd 4c 19 7d 3d
       -0.062631704 0.004756674 -0.044743128 0.061791703
0003c0 28 5b 4b be a2 0d ae 3d 97 6c c9 bc 1a ac 9f bd
       -0.19858992 0.08498694 -0.024587912 -0.07796498
0003d0 63 c0 5d 3a 03 b9 b9 3d ab 33 30 3d 46 d9 10 bd
       0.0008459149 0.09068491 0.043018024 -0.035363458
0003e0 25 34 80 3d 5e 2f 3b bc 5e b1 48 3d 0f 10 d0 bd
       0.06259946 -0.011424867 0.048997276 -0.10159313
0003f0 9a 05 1d bd 43 11 ae 3d 8a 3f 8b b9 7e e9 ed 3d
       -0.03833542 0.08499386 -0.00026559486 0.11616801

fc2.bias f4 [84]
000000 ca 68 02 3d b8 96 7d bd 38 b0 82 3e bc 1c 19 3d
       0.031838216 -0.061911315 0.2552507 0.03738092
000010 bf 60 22 be 6f e3 53 bd 9b 7a 0e be c3 a6 8c 3d
       -0.15857218 -0.05173057 -0.13913958 0.06867745
000020 fa 3a 19 3d f6 5b d4 bd 4f c6 2a be 7a 16 8f bb
       0.03740976 -0.10369103 -0.16677211 -0.004366693
000030 a0 b5 24 bd c0 94 91 3e ac c8 d5 3c 2f 39 ae bd
       -0.040212274 0.284338 0.026096664 -0.08507001
000040 92 78 62 bd de 5f 17 3e ad 84 be bd 37 6d 95 38
       -0.055290766 0.14782664 -0.0930265 7.1252165e-05
000050 eb 27 f1 3d 31 23 80 bd 2e ff 6c 3c 31 b7 07 be
       0.11775192 -0.06256712 0.014465136 -0.13253476
000060 71 75 2f 3e 5f 28 d5 bd 94 12 fc 3d d3 9e 91 3d
       0.17134644 -0.10408091 0.12308231 0.071103714
000070 ae e3 78 3e f7 0e 49 bd d4 33 1d 3d 0f 6b 3c 3d
       0.24305603 -0.049086537 0.038379505 0.046000537
000080 48 52 18 be 7f 59 40 3d 53 7f de 3d 5a b6 d2 3d
       -0.14875138 0.04696035 0.10864129 0.10288687
000090 a6 4c 0e be d3 e3 57 bd 84 79 87 bd 7c cb eb bd
       -0.13896427 -0.052707504 -0.06614974 -0.11513421
0000a0 0c cb ce bc b9 c6 b2 bd e4 61 23 be ac 3a 8a 3d
       -0.025243305 -0.087293096 -0.15955311 0.06749472
0000b0 17 82 ac 3e 28 d2 7f 3d ab 47 9d 3e 16 d6 52 3e
       0.33693 0.06245628 0.3071874 0.2058948
0000c0 41 be 8a 3e ec 16 dd 3d 16 d1 c2 3e d6 d7 68 3c
       0.27098277 0.107953876 0.38050145 0.014211616
0000d0 12 1b 88 3d 93 74 f3 bb f4 02 a8 3e b3 f6 45 3c
       0.06645788 -0.007429668 0.32814753 0.012082743
0000e0 26 de 8a 3e 26 da 94 3e 24 34 9f 3c bb f6 31 bc
       0.2712261 0.29072684 0.019434042 -0.010862048
0000f0 f7 69 d3 bd 64 ef d4 3e ee e7 5c 3e f3 8d 0d 3d
       -0.103229456 0.4158889 0.21572849 0.0345592
000100 a5 ac 9e 3d 0a 3e bb bc b9 8f ce 3e d1 f1 a5 bd
       0.07747773 -0.022856731 0.40344027 -0.081027634
000110 64 7c 78 3d 2a 64 41 3e 91 28 bd bd d1 93 25 3e
       0.060665503 0.18885866 -0.09236253 0.16169669
000120 63 d1 63 3d 19 d9 95 bd 4a fb 36 3e 20 75 bd 3d
       0.05561961 -0.07316799 0.17869297 0.092508554
000130 ae 50 24 bd 0c 8c 13 be 96 ba a6 bd 82 f6 97 3e
       -0.040116005 -0.14408892 -0.08141057 0.29680258
000140 93 e4 2a 3e 23 da a0 3e 97 94 06 3e ce 0d 5a 3e
       0.16688757 0.31416425 0.1314262 0.21294329

fc3.weight f4 [10, 84]
000000 28 65 83 bd 06 14 fd bb 9a 39 85 be c7 b2 5f 3c
       -0.064157784 -0.0077233342 -0.2602051 0.013653464
000010 01 8a 43 bd 0e 78 5f be f2 be 18 3e ec f4 0b be
       -0.047739033 -0.21823141 0.1491659 -0.13667649
000020 27 f6 ea bd a3 f8 a2 3d 59 aa 00 3c ec b3 97 bc
       -0.11472731 0.0795758 0.007853114 -0.01851841
000030 9e 4e 99 3c 4c 00 87 be c8 9d ba bc 7c 06 c5 bd
       0.018714245 -0.26367414 -0.022780314 -0.096203774
000040 6c cd 7a 3d 27 b5 40 bd 45 6a 8a 3d 07 f5 05 3e
       0.06123106 -0.04704776 0.067585506 0.13081752
000050 7e bc 9d ba b6 4d 60 be e9 32 93 bc f2 dd a4 3d
       -0.0012034324 -0.21904644 -0.017968612 0.08050145
000060 3e 5a 51 be 6f 63 08 bd bf 4b 01 be ca 5a 9e bd
       -0.20444581 -0.033297952 -0.12626551 -0.077321604
000070 01 c2 a3 bd 3b 19 de 3d 83 b0 5c be 90 69 3a bd
       -0.07995988 0.10844656 -0.21551709 -0.04551083
000080 f9 d8 20 3e cd be ea bc 14 30 a5 3d 44 74 7c be
       0.15707768 -0.028655434 0.08065811 -0.24653727
000090 8c eb 41 3d 9f 48 34 3e d4 d1 1e 3e 35 8d fa bd
       0.047343776 0.17605828 0.1550973 -0.12233964
0000a0 fa 27 34 bb d6 92 11 3b 5b 45 bb 3c c5 40 0c be
       -0.0027489648 0.0022212765 0.02286022 -0.13696583
0000b0 94 74 b6 3d a7 56 cc 3c 31 0a ad 3d bf 19 16 be
       0.08908954 0.024943663 0.084492095 -0.14658259
0000c0 4d 3a fb 3d 01 26 57 be 10 b0 47 3d 6d 51 a0 3d
       0.12266979 -0.21010591 0.04875189 0.07828031
0000d0 9e fe aa bd 99 df 0f bd fa 45 f8 bc 53 47 31 3c
       -0.083493456 -0.03512535 -0.030306805 0.010820228
0000e0 85 b2 d6 3d 09 05 b6 3d 2d f2 25 be df 52 0f be
       0.10483269 0.08887679 -0.16205664 -0.13996457
0000f0 ba 80 0c be 1c 4d a4 bd bb 4e be bd 52 7d 12 be
       -0.1372098 -0.0802252 -0.092923604 -0.14305618
000100 bd 70 3c be 4d bf b8 3c 8f dc 33 bc a2 87 39 3e
       -0.18402381 0.022552157 -0.010977878 0.18118146
000110 e6 0a 80 bd fd a3 38 be 54 01 1a 3d 88 52 a5 3d
       -0.06252079 -0.18031307 0.037598923 0.08072382
000120 49 43 cd bc f8 f8 5b bd 72 95 30 be 00 9e 5f 3d
       -0.025056498 -0.053704232 -0.17244509 0.05459404
000130 40 a8 75 bc 39 82 de 3d f2 31 89 bd 6b b3 5f be
       -0.014993727 0.10864682 -0.066989794 -0.21845786
000140 66 b1 38 be a4 11 e3 bd 69 1c 5d be 33 77 cc 3d
       -0.18036422 -0.11087349 -0.21592869 0.09983673
000150 67 a0 42 3d 7e ff da bc b1 12 61 3d 37 ff 09 bd
       0.047516253 -0.026733156 0.054949466 -0.033690657
000160 2b 7d a6 3d dc 3f 67 bd 4f fa 0f be 36 ed 33 3d
       0.08129343 -0.056457385 -0.14060329 0.043927394
000170 e1 54 15 bc c6 61 c3 3c 48 88 af 3d b1 9d fc bd
       -0.009114475 0.023850333 0.085709155 -0.12334765
000180 09 ca 22 3e b9 51 e2 bd 2d 15 2f bd 89 2d bd bd
       0.15897383 -0.110507436 -0.042744804 -0.09237201
000190 3b 29 15 3e 63 87 67 bd a7 24 0b be 8f c7 9f bc
       0.1456651 -0.0565256 -0.135882 -0.019504337
0001a0 e9 99 cc bb 82 07 8e be ab bb f5 bd f7 fd 87 bd
       -0.0062439335 -0.27740103 -0.119986854 -0.06640237
0001b0 bd dd d9 bd 56 0f c8 bd b9 c3 67 bd 1a fa bc 3a
       -0.10637996 -0.0976855 -0.05658314 0.0014417798
0001c0 a7 97 c9 bd 69 4e 76 bc 00 d3 99 bc 9f 10 92 3d
       -0.098433785 -0.015033343 -0.01877737 0.071320765
0001d0 32 d9 1a 3e d9 f0 af 3d a6 49 7b be 75 a4 2d 3e
       0.15121916 0.0859086 -0.24539813 0.16957267
0001e0 70 dd f2 3b 3d 1d c6 3d 1f ed 0e bd e8 3d bf bd
       0.0074116513 0.096735455 -0.034894105 -0.093379796
0001f0 22 79 2b 3e 1d 50 42 3d 7b e6 31 3d a9 30 16 be
       0.16745427 0.047439683 0.043432694 -0.14667
000200 6a a6 c6 3c 78 a0 9c bd cf 89 6a be 03 18 64 be
       0.024249274 -0.076477945 -0.22904132 -0.22274785
000210 ac 28 af 3c 6c ed 7a bc 71 67 88 be eb 32 12 be
       0.021381699 -0.015315395 -0.2664142 -0.14277236
000220 18 dc 06 be ee f3 dd bd e5 b4 dd bd 01 03 59 be
       -0.13169897 -0.108375415 -0.108255185 -0.21192552
000230 22 d4 e1 3d d7 87 15 be 89 d5 c7 3d f5 cb 2f bd
       0.11026789 -0.146026 0.097575255 -0.042919118
000240 3c 05 c2 3d 63 8a c2 bd 9a 42 08 3d 44 14 79 be
       0.09473655 -0.094990514 0.03326664 -0.24324137
000250 9a bf 12 be b2 69 24 3e 49 78 ed bd 10 d1 36 bd
       -0.14330903 0.16055945 -0.11595208 -0.04463297
000260 a3 f2 b0 bd 17 03 b4 bd 63 aa 5a bd 5b 5b 97 bd
       -0.08640029 -0.08789652 -0.05338515 -0.073904715
000270 cf a2 53 be 89 fb 4c be 26 fd 34 3d 3d 6f ce bd
       -0.20667575 -0.20017828 0.044186734 -0.10079811
000280 53 82 27 bd 33 9b 24 be e3 e3 03 3d db 84 11 be
       -0.04089577 -0.16074829 0.03219975 -0.14210837
000290 20 79 1e 3e 78 a8 a1 be f3 d1 d1 bd 38 33 76 3d
       0.15475893 -0.31573844 -0.10245123 0.06010744
0002a0 c4 74 24 be 91 df 17 3d ab 0d b0 3d 5c 17 e4 bd
       -0.16060168 0.037078444 0.08596357 -0.11137268
0002b0 e2 f3 ed bd fb 04 c7 3c 94 35 0f 3e 33 ed 09 be
       -0.116187826 0.024294367 0.13985282 -0.1346939
0002c0 fb 9c 41 bc 07 ea a4 3d 49 05 05 3d be 42 e3 3d
       -0.011817212 0.0805245 0.032475743 0.110967144
0002d0 84 ed 3e be 19 cc 16 3e 64 4b 30 3e 7b 7d 34 bd
       -0.18645293 0.14726295 0.17216259 -0.04406498
0002e0 61 67 cc bb 49 7d bc bc e3 c9 45 be 50 da 48 3b
       -0.0062379097 -0.02300896 -0.19315295 0.0030647703
0002f0 1a f2 9b 3d 3b 36 ed bc 62 46 dc bc 18 b1 37 bd
       0.076145366 -0.028956523 -0.02688903 -0.044846624
000300 e1 17 a8 bd 61 21 b8 bd ae 9d d2 3d b5 6f 2a 3c
       -0.082076795 -0.089907415 0.10283981 0.01040261
000310 64 2d 4a be 1e e8 70 bc fd 54 e0 bd 75 44 6c bd
       -0.19743878 -0.014703779 -0.1095371 -0.057682473
000320 a0 0d 93 bd 2f 78 38 be f8 a6 ae 3d f5 0c 54 ba
       -0.07180333 -0.18014596 0.085279405 -0.0008089089
000330 43 73 a9 3d 52 70 5f 3d 26 92 93 bc d0 e4 d5 bc
       0.082739376 0.054550476 -0.018014025 -0.026110083
000340 46 ad 9e 3c 1b 63 d9 bd de f1 dc 3d bb 3b c6 bd
       0.019369733 -0.10614606 0.1078832 -0.096793614
000350 74 ff 8d 3b db ad 01 be 99 38 74 3d 77 26 91 bd
       0.004333431 -0.12663977 0.05962429 -0.07087415
000360 ed e4 0b be 72 d0 29 bd 2e 6f ab 3d 4f 2f a8 bc
       -0.13661547 -0.041458555 0.08370815 -0.020530371
000370 67 87 db 3d ae da 94 ba fe 28 18 be 54 8a c2 3d
       0.10719185 -0.0011356676 -0.14859387 0.0949904
000380 8e de 07 be c1 c9 e5 bc d6 b5 b5 3d bb 6c 52 3e
       -0.13268492 -0.028050305 0.08872573 0.2054929
000390 85 a3 ca bc 47 89 d9 bb eb 1f b1 bd 9e d9 d1 3c
       -0.024736175 -0.006638679 -0.08648666 0.025616463
0003a0 8d a5 04 be 69 75 15 bd 04 66 0b bd 43 89 6b 3d
       -0.12953778 -0.036488924 -0.034032837 0.05750395
0003b0 ee 7a 0b 3e a4 fd 27 bd 33 fd 0c 3e ee 27 76 3e
       0.13621113 -0.041013375 0.13768463 0.2403867
0003c0 de 9a ee bc d0 24 8b 3d ad a7 ae 3c e2 4f e9 3c
       -0.02912658 0.06794131 0.021320188 0.028480474
0003d0 8f 00 6c be 4c 4a ac bd e9 d6 47 bd e1 74 21 3e
       -0.23047088 -0.084126085 -0.04878894 0.15767242
0003e0 66 2c f0 bd dd 67 93 3d 5e e1 e0 3d fa 0c 23 bc
       -0.11727218 0.07197545 0.109804854 -0.009951824
0003f0 12 ad bd 3d c4 7c 72 bd 5f 16 90 3c 87 15 37 3d
       0.09261526 -0.059201017 0.017588792 0.044698264

fc3.bias f4 [10]
000000 37 64 28 3c d5 1b 47 be 3d c2 52 3c bd 48 01 3e
       0.010277799 -0.19444211 0.012863693 0.12625404
000010 a9 4b 2e 3e 1c 42 30 3d cd 6b a5 3d dc f1 81 bd
       0.1702105 0.043031797 0.08077202 -0.06344959
000020 3d 8d bc 3d 87 76 32 bd
       0.092066266 -0.043570068
